Model8.pt (torch_old, 1674 bytes, 6 tensors)

rnn.weight_ih_l0 f4 [8, 10]
0.5345951 1.017895 0.058576543 -0.12152815 -0.70512533 -0.54930705 0.24336684 0.10600953
-0.40505865 -0.55288255 -0.38030136 -0.23692384 0.7409343 0.34700355 -0.131054 -0.064197026
0.131493 -0.98067474 -0.26918656 -0.20110816 -0.7091839 0.38899332 0.08125435 -0.15327744
0.18833718 0.368109 0.17876083 0.36802185 -0.2529061 0.16574153 -0.38718453 0.17180407
0.36451507 0.31223086 0.27619258 0.5664088 -0.23058099 0.6595041 -0.5075976 0.23643558
0.52293295 0.6768368 0.053047914 -0.2626077 -0.2817296 0.20292895 0.22003406 -0.33115226
-0.24898382 -0.64282006 -0.7145498 -0.023844037 0.6449104 0.43493664 -0.1738584 -0.31795305
-0.057138152 0.075785115 0.43264428 0.35346156 0.10137221 -0.11246091 -0.024259504 0.3304779
0.10689255 -0.05898497 -0.010799656 0.093326606 -0.1592455 -0.1501599 -0.6406761 0.05770264
-0.4438415 0.39055774 0.5158924 -0.2521682 0.14290561 0.29933625 0.46002275 -0.1553442
00000000: 39db 083f 624a 823f f5ed 6f3d c0e3 f8bd
00000010: 1883 34bf 639f 0cbf 2835 793e 861b d93d
00000020: d963 cfbe b689 0dbf dcb6 c2be 2a9c 72be
00000030: dfad 3d3f 73aa b13e 0533 06be bb79 83bd
00000040: 1aa6 063e 800d 7bbf d2d2 89be 4cef 4dbe
00000050: 138d 35bf 222a c73e ae68 a63d c3f4 1cbe
00000060: 76db 403e c878 bc3e 140d 373e 5c6d bc3e
00000070: e97c 81be 26b8 293e 0d3d c6be 68ed 2f3e
00000080: b8a1 ba3e b9dc 9f3e 1d69 8d3e 2b00 113f
00000090: 6c1d 6cbe 43d5 283f ebf1 01bf 2b1c 723e
000000a0: efde 053f 2d45 2d3f c548 593d 8474 86be
000000b0: dd3e 90be 9bcc 4f3e 9c50 613e ca8c a9be
000000c0: 9df5 7ebe db8f 24bf bcec 36bf 9254 c3bc
000000d0: d918 253f 04b0 de3e f007 32be beca a2be
000000e0: b209 6abd 3a35 9b3d 8d83 dd3e eaf8 b43e
000000f0: 3c9c cf3d e851 e6bd debb c6bc 6634 a93e
00000100: 7bea da3d 399a 71bd 0af1 30bc 0522 bf3d
00000110: 4111 23be 84c3 19be 5903 24bf 9a59 6c3d
00000120: 313f e3be 2ff7 c73e 8611 043f 311c 81be
00000130: d955 123e 9a42 993e 1a88 eb3e 8d12 1fbe

rnn.weight_hh_l0 f4 [8, 8]
0.1411042 0.12433563 -0.17802633 0.17571224 -0.11295802 -0.153035 -0.3004269 0.15247063
0.17250247 0.15364695 -0.22653373 0.22027199 -0.15939383 -0.20874523 -0.38147518 0.1837954
-0.1152324 -0.102661796 0.16524409 -0.16483577 0.112066075 0.14388342 0.2503852 -0.11892909
0.12971511 0.112329334 -0.12384179 0.12780967 -0.11941567 -0.12702483 -0.2190977 0.11375336
-0.099750094 -0.086475156 0.0931455 -0.0996037 0.09644985 0.10516591 0.17574914 -0.07172297
-0.103373244 -0.0947913 0.15512496 -0.15165722 0.09774662 0.12124891 0.23392703 -0.102166966
-0.32486805 -0.29242042 0.38665032 -0.37721646 0.30860925 0.3781556 0.6216839 -0.31554505
0.14353304 0.12507132 -0.17564051 0.16807991 -0.1299857 -0.16203488 -0.3033605 0.119596936
00000000: 9f7d 103e aea3 fe3d 894c 36be e9ed 333e
00000010: 8956 e7bd 35b5 1cbe 8ed1 99be 4321 1c3e
00000020: 7da4 303e a055 1d3e 75f8 67be fb8e 613e
00000030: 2338 23be 4fc1 55be b750 c3be dd34 3c3e
00000040: f7fe ebbd 5940 d2bd bf35 293e b5ca 28be
00000050: e682 e53d 2d56 133e 7d32 803e 1891 f3bd
00000060: 0ad4 043e ec0c e63d c4a0 fdbd 8ae0 023e
00000070: 3490 f4bd cc12 02be 265b 60be 86f7 e83d
00000080: c749 ccbd e319 b1bd 11c3 be3d 06fd cbbd
00000090: 8087 c53d 3a61 d73d 95f7 333e 7ee3 92bd
000000a0: 5ab5 d3bd f121 c2bd 14d9 1e3e 084c 1bbe
000000b0: 612f c83d 5951 f83d 918a 6f3e ea3c d1bd
000000c0: 1b55 a6be 21b8 95be 08f7 c53e 8422 c1be
000000d0: 0802 9e3e 9c9d c13e ad26 1f3f 1f8f a1be
000000e0: 53fa 123e b212 003e 1bdb 33be 241d 2c3e
000000f0: f91a 05be 79ec 25be 1152 9bbe 3def f43d

rnn.bias_ih_l0 f4 [8]
0.08179608 0.17677456 -0.48552126 0.29759052 0.49060184 0.06813178 0.14690435 0.08451671
00000000: b484 a73d 6404 353e 3e96 f8be c95d 983e
00000010: 2a30 fb3e ad88 8b3d 186e 163e 1917 ad3d

rnn.bias_hh_l0 f4 [8]
0.23510449 0.011141224 0.030368377 -0.084744856 0.45087332 -0.17949231 0.064134 0.00940048
00000000: 3bbf 703e ae89 363c 1ac7 f83c b68e adbd
00000010: ded8 e63e d5cc 37be b058 833d 7904 1a3c

fc.weight f4 [2, 8]
-2.8883548 -2.5867486 3.5238729 -3.3690145 2.7181108 3.2611947 5.5839295 -2.713231
2.6059222 2.5085354 -3.2881942 3.3230853 -2.3124852 -3.2147079 -5.5908475 2.7184145
00000000: ceda 38c0 4a8d 25c0 2287 6140 ef9d 57c0
00000010: 87f5 2d40 6ab7 5040 8daf b240 94a5 2dc0
00000020: 6ec7 2640 d88b 2040 c671 52c0 6ead 5440
00000030: c2ff 13c0 c6bd 4dc0 39e8 b2c0 81fa 2d40

fc.bias f4 [2]
0.8659455 -0.7761362
00000000: 9bae 5d3f ddb0 46bf
