ModelCount8.pt (torch_old, 1656 bytes, 6 tensors)

rnn.weight_ih_l0 f4 [8, 10]
0	0x3f25d4b3	0.6477768
1	0x3f7b6a76	0.9820932
2	0x3e0c1a89	0.13681997
3	0xbe7a62f8	-0.24451816
4	0xbf5e222f	-0.8677091
5	0xbee4c194	-0.44678938
6	0x3e611bf8	0.21983325
7	0x3e744ebf	0.23858164
8	0xbecfcfda	-0.40588266
9	0xbdfce697	-0.12348669
10	0xbf5d15b9	-0.8636127
11	0x3dc0f529	0.094217606
12	0x3e76666f	0.24062513
13	0x3ddf409c	0.10900995
14	0xbd86b222	-0.06576945
15	0xbd60d600	-0.054891586
16	0x3ecb8137	0.3974702
17	0xbf7fba60	-0.9989376
18	0xbe904052	-0.28174073
19	0xbe207915	-0.15671189
20	0xbfa649da	-1.2991288
21	0x3f0f0d6f	0.55879873
22	0xbe0cc3ff	-0.13746642
23	0xbf5ef78c	-0.87096477
24	0x3e46cb8b	0.19413583
25	0x3f7a45a3	0.9776251
26	0x3e8d9a10	0.27656603
27	0xbd91f2b7	-0.07126372
28	0xbe7b940b	-0.24568193
29	0x3ee44b06	0.44588488
30	0xbf011a4f	-0.5043077
31	0x3c68894a	0.0141928885
32	0x3d9c2de9	0.07625944
33	0x3f073dee	0.5282887
34	0xbd55264f	-0.052038487
35	0x3f682d25	0.90693885
36	0xbe648f72	-0.22320345
37	0x3f4036fb	0.75083894
38	0xbf05be5f	-0.5224361
39	0x3e4c6cd3	0.19963388
40	0x3eb60a22	0.35554606
41	0x3e479b49	0.1949283
42	0xbdf17056	-0.117890045
43	0x3f54f238	0.83182096
44	0xbd8d7669	-0.069073506
45	0xbf4f457b	-0.80965394
46	0x3bd125dd	0.0063826875
47	0xbdb718ba	-0.08940263
48	0xbf146162	-0.57961094
49	0xbef8023a	-0.484392
50	0xbf0cc0dc	-0.5498178
51	0xbf044df8	-0.5168147
52	0x3e2a1d3a	0.16612712
53	0x3ee083d3	0.43850574
54	0xbf14f133	-0.5818054
55	0x3e1bdcf3	0.15221004
56	0x3ea4ca0e	0.32185405
57	0x3f0dad0d	0.5534218
58	0x3e9edb84	0.31026852
59	0xbea02357	-0.31276962
60	0xbc88d676	-0.016703825
61	0x3d1c846e	0.038212232
62	0x3d39e607	0.045385387
63	0x3d107133	0.035264205
64	0x3dc7b252	0.09750809
65	0x3d60f49d	0.05492078
66	0x3c431ba5	0.011908446
67	0xbd1fcff2	-0.03901667
68	0xbc610a49	-0.013735362
69	0xbd99756a	-0.07493098
70	0xbf05a4f6	-0.52204835
71	0xbf0c0c19	-0.5470596
72	0xbef5c4a1	-0.48001578
73	0x3de54743	0.11195233
74	0x3f8893cc	1.0670104
75	0x3e1671e8	0.1469189
76	0xbc137d78	-0.009002082
77	0x3e08eee5	0.13372381
78	0x3f28d060	0.65942955
79	0xbf087ad4	-0.5331242

rnn.weight_hh_l0 f4 [8, 8]
0	0x3d2c4685	0.04205944
1	0x3d42794f	0.04747897
2	0xbd60020f	-0.054689463
3	0x3d0d972f	0.034568008
4	0xbd1a06ab	-0.037604015
5	0xbd2754e8	-0.040852457
6	0xbe15c9e5	-0.14627798
7	0x3d2c77c3	0.0421064
8	0x3dd140f0	0.10217464
9	0x3dca322d	0.098728515
10	0xbde7e2a6	-0.11322527
11	0x3da04de1	0.07827354
12	0xbdf0cc10	-0.11757672
13	0xbd80a784	-0.06281951
14	0xbe84794a	-0.25873786
15	0x3db05ed4	0.08611837
16	0xba518d01	-0.00079937285
17	0x3c5eb1b4	0.013592172
18	0x3a89d89d	0.0010516826
19	0xbbc8843f	-0.0061192806
20	0x3b4684c2	0.0030291532
21	0xbbb3dc7f	-0.0054889317
22	0xbc60ef99	-0.0137289995
23	0x3c0001fb	0.007812972
24	0x3e00b3d0	0.12568593
25	0x3ddc0a8b	0.107441984
26	0xbe033198	-0.12811887
27	0x3da803f7	0.08203881
28	0xbdfae211	-0.1225015
29	0xbd66e39a	-0.0563694
30	0xbe9e9c91	-0.30978826
31	0x3de0fc10	0.10985577
32	0x3bad3abf	0.005286544
33	0xbc63d4c1	-0.013905705
34	0xbc2338d7	-0.009962282
35	0xbc548065	-0.012970065
36	0x3b601532	0.003419232
37	0x3c94fa3f	0.018185733
38	0x3e051b32	0.12998655
39	0x3c2f4c82	0.010699393
40	0xbd56540a	-0.05232624
41	0xbd6b5e80	-0.05746317
42	0x3d6c9d4e	0.057767205
43	0xbd3b1e51	-0.04568321
44	0x3d6bbd23	0.05755342
45	0x3d8263b9	0.06366677
46	0x3dcb6834	0.099319845
47	0xbd52e87c	-0.051491246
48	0xbef1b737	-0.47210094
49	0xbebf6f51	-0.37389615
50	0x3eda486a	0.42633373
51	0xbea4ba84	-0.3217355
52	0x3ebbefd7	0.3670642
53	0x3eafdaf2	0.3434673
54	0x3f610b7f	0.87908167
55	0xbed079c7	-0.4071791
56	0x3dce231e	0.10065292
57	0x3d926c7c	0.07149598
58	0xbdacb791	-0.0843345
59	0x3d851fae	0.06500183
60	0xbdac45d0	-0.08411753
61	0xbd5c5c2f	-0.05379885
62	0xbe346d11	-0.1761973
63	0x3daf7679	0.08567519

rnn.bias_ih_l0 f4 [8]
0	0x3baa46cb	0.0051964275
1	0x3db2d904	0.08732799
2	0xbf0aba82	-0.5419084
3	0x3e7797a3	0.24178939
4	0x3ebb5147	0.36585447
5	0xbe76504d	-0.2405407
6	0x3dbc9542	0.09208156
7	0xbc96e059	-0.018417524

rnn.bias_hh_l0 f4 [8]
0	0x3e224f24	0.15850502
1	0xbda05dd4	-0.07830396
2	0xbcd5236a	-0.026017863
3	0xbe0feae6	-0.1405445
4	0x3ea6fa06	0.32612628
5	0xbef9f0f1	-0.48816636
6	0x3c188813	0.009309786
7	0xbdbf8e8f	-0.09353363

fc.weight f4 [2, 8]
0	0xc0480610	-3.12537
1	0xc01b09f5	-2.4224827
2	0x4030479c	2.7543707
3	0xc00555cb	-2.0833614
4	0x401cf72d	2.4525864
5	0x4010dba5	2.263406
6	0x40d6be9e	6.7107687
7	0xc0261044	-2.5947428
8	0x4035f28c	2.842929
9	0x4016086c	2.344264
10	0xc0213284	-2.5187082
11	0x40026543	2.0374305
12	0xc003019c	-2.0469732
13	0xc00de215	-2.216924
14	0xc0d6f750	-6.7176895
15	0x4026652c	2.599925

fc.bias f4 [2]
0	0x3f3bc589	0.7334829
1	0xbf24c7b4	-0.6436722
